Lab5/weight.pt (torch, 16717 bytes, 9 tensors)

rnn.weight_ih_l0 f4 [32, 12]
0.066353366 0.023457224 0.19267179 -0.07421765 0.20752852 -0.0005241033 -0.032768123 0.13355587
0.028572569 0.24040715 -0.02432094 -0.07422795 -0.047331546 -0.026407141 0.08297892 -0.009618669
0.11309948 0.051473554 -0.05865193 -0.13483697 0.14035362 -0.018269498 -0.15955879 0.057797287
-0.016528077 -0.09786461 0.05815022 -0.123311765 -0.16260043 0.058326367 0.045574833 0.08772452
0.11733832 -0.13899073 -0.054168604 0.15405862 -0.10476857 -0.024121026 0.046189707 0.0901519
-0.1505485 0.06531194 -0.07495569 -0.14269832 0.02196685 0.1022984 0.12516151 -0.13809174
-0.07068982 -0.04862024 -0.07184073 0.0023178277 -0.047070343 0.1648038 0.10394191 -0.012305047
0.06988533 -0.00147636 0.21179503 0.1736533 -0.077347256 0.11409543 -0.052540313 -0.15370332
0.0714628 -0.020980103 0.16824855 -0.060042135 0.123268664 -0.12406103 0.05177365 -0.14574248
0.08411364 -0.07429346 -0.10691115 0.17235567 0.12392955 -0.1085716 0.0515266 0.13260534
0.13302155 0.15292542 -0.13014564 -0.10286788 -0.09501512 0.059687607 0.058381647 0.06824202
-0.0054135006 -0.017411206 0.0012948847 -0.140617 -0.17856811 0.031204421 -0.021388689 0.06292232
0.01835625 -0.1367338 -0.12330887 0.0090837665 0.055940103 -0.069627814 -0.024581399 0.18554462
0.0703975 0.10056003 -0.033480525 0.1405766 -0.094297774 -0.010052389 0.1759562 0.120472245
-0.113183245 0.16206162 -0.12201079 0.13673645 -0.1413128 0.024159513 0.07456704 -0.08335258
-0.18775474 0.0050952756 -0.13491732 -0.0014855147 -0.022512265 -0.18582083 -0.1744325 -0.15669361
0.0010484649 -0.041929718 -0.21546225 -0.089527346 0.09978693 -0.0039870334 -0.021572132 0.12078689
0.10900708 -0.010464807 -0.009134341 -0.031053929 0.081704535 -0.11091799 0.06495274 -0.018130781
0.11269891 -0.03843848 -0.042115044 -0.065190434 -0.1494626 0.1272816 0.08152405 0.015965175
-0.18125632 0.02386155 0.10194669 0.0039353864 0.02989678 0.18940674 0.15393335 0.07441331
0.0038234312 -0.06942472 0.07623308 -0.0617998 0.072600834 -0.040522195 -0.07066618 0.10070433
0.4299302 0.42788878 0.4406623 0.25457963 0.4881401 0.46391317 0.2961592 0.4809392
0.33110622 0.51398873 0.50057375 0.37097803 0.15409496 0.043765113 0.054335207 -0.067479596
-0.13168606 0.11641693 -0.10614646 -0.17813355 0.040014464 0.08482333 0.06223103 -0.027985627
-0.76323044 -0.65362597 -0.71295834 -0.65835685 -0.42533165 -0.7072658 -0.5639226 -0.70467687
-0.71905476 -0.73240966 -0.48490027 -0.4868851 0.02583641 0.0051499694 -0.16092792 0.042060293
-0.13990518 -0.07988984 0.05328781 0.058054157 -0.08309202 0.04816163 -0.13564515 -0.124059625
0.038294286 0.026785797 -0.15249346 -0.033197854 -0.07656665 -0.030123612 -0.24664938 0.0583844
0.08023084 -0.22345833 -0.0040634833 -0.07619528 0.14190459 0.022727178 -0.01763947 0.07661158
-0.0112122595 0.13078201 0.024592586 -0.014724928 0.06223758 0.008656342 -0.08199537 -0.011912018
0.10499252 0.07112224 -0.08525218 -0.01473499 0.061407063 -0.058191165 -0.14713353 -0.03135772
0.0564598 0.04905179 0.05270363 -0.102176316 -0.260987 -0.088849775 -0.025084078 -0.014147377
00000000: 46e4 873d 5d29 c03c c14b 453e 6cff 97bd
00000010: 5b82 543e fa63 09ba de37 06bd dfc2 083e
00000020: 0511 ea3c 4b2d 763e b53c c7bc d304 98bd
00000030: b9de 41bd ca53 d8bc daf0 a93d 9f97 1dbc
00000040: b3a0 e73d efd5 523d 023d 70bd b412 0abe
00000050: dcb8 0f3e eaa9 95bc 6163 23be d9bc 6c3d
00000060: e465 87bc 3e6d c8bd ed2e 6e3d e18a fcbd
00000070: ba80 26be a1e7 6e3d adac 3a3d eaa8 b33d
00000080: 134f f03d 9653 0ebe e6df 5dbd 8bc1 1d3e
00000090: e790 d6bd 7599 c5bc 6b31 3d3d 8fa1 b83d
000000a0: 6329 1abe 44c2 853d 5e82 99bd 821f 12be
000000b0: d3f3 b33c d381 d13d 572a 003e ec67 0dbe
000000c0: d3c5 90bd 0426 47bd 3c21 93bd b2e6 173b
000000d0: d5cc 40bd 54c2 283e 7fdf d43d 1c9b 49bc
000000e0: 0a20 8f3d 6c82 c1ba cce0 583e 2cd2 313e
000000f0: 3d68 9ebd ddaa e93d 8334 57bd 6764 1dbe
00000100: 175b 923d 77de abbc 5949 2c3e beee 75bd
00000110: 4874 fc3d b613 febd 9b10 543d 843d 15be
00000120: c643 ac3d 2b27 98bd 3cf4 dabd 017e 303e
00000130: c7ce fd3d c95a debd 8e0d 533d b2c9 073e
00000140: cd36 083e 7b98 1c3e e644 05be 65ac d2bd
00000150: 4a97 c2bd fe7a 743d 9821 6f3d 79c2 8b3d
00000160: bc63 b1bb f2a1 8ebc 1fb9 a93a e7fd 0fbe
00000170: 8fda 36be 6aa0 ff3c 5537 afbc 6bdd 803d
00000180: d95f 963c f203 0cbe 5c89 fcbd 14d4 143c
00000190: 7321 653d 0799 8ebd ee5e c9bc 69ff 3d3e
000001a0: 912c 903d 6bf2 cd3d e022 09bd 50f3 0f3e
000001b0: 311f c1bd c7b2 24bc dd2d 343e 27ba f63d
000001c0: 9ecc e7bd 7bf3 253e cbe0 f9bd a404 0c3e
000001d0: 4db4 10be 2cea c53c 9bb6 983d c2b4 aabd
000001e0: c742 40be 45f6 a63b c427 0abe 9ab5 c2ba
000001f0: a46b b8bc d147 3ebe 6f9e 32be 4a74 20be
00000200: a56c 893a 7fbe 2bbd 23a2 5cbe 1d5a b7bd
00000210: 175d cc3d a9a5 82bb 0ab8 b0bc 1e5f f73d
00000220: 1b3f df3d 9574 2bbc 34a8 15bc cf64 febc
00000230: b554 a73d f928 e3bd f105 853d 0187 94bc
00000240: b0ce e63d ab71 1dbd d380 2cbd 9082 85bd
00000250: b90c 19be 1c56 023e 15f6 a63d 66c9 823c
00000260: 429b 39be 4c79 c33c 6dc9 d03d 6af4 803b
00000270: 18ea f43c d7f3 413e b4a0 1d3e 0166 983d
00000280: 8892 7a3b 8c2e 8ebd 1720 9c3d c921 7dbd
00000290: bfaf 943d 9afa 25bd 6eb9 90bd 123e ce3d
000002a0: d01f dc3e 3d14 db3e 7d9e e13e 4358 823e
000002b0: 80ed f93e 0786 ed3e 2ea2 973e aa3d f63e
000002c0: c186 a93e c494 033f 9a25 003f d5f0 bd3e
000002d0: 12cb 1d3e 0c43 333d 988e 5e3d be32 8abd
000002e0: b6d8 06be 006c ee3d 5163 d9bd a468 36be
000002f0: 35e6 233d dbb7 ad3d f7e5 7e3d 1d42 e5bc
00000300: 1263 43bf 0854 27bf 7084 36bf 138a 28bf
00000310: 12c5 d9be 5f0f 35bf 3b5d 10bf b465 34bf
00000320: f913 38bf 337f 3bbf d944 f8be 0149 f9be
00000330: e1a6 d33c 13c1 a83b 4aca 24be 6a47 2c3d
00000340: 4e43 0fbe 499d a3bd 5244 5a3d 32ca 6d3d
00000350: 262c aabd 2145 453d 90e6 0abe f912 febd
00000360: 78da 1c3d e36d db3c 3f27 1cbe 79fa 07bd
00000370: face 9cbd cbc5 f6bc a891 7cbe 7b24 6f3d
00000380: 1150 a43d 43d2 64be f826 85bb 450c 9cbd
00000390: 704f 113e 592e ba3c a680 90bc 88e6 9c3d
000003a0: a0b3 37bc b8eb 053e 6476 c93c d340 71bc
000003b0: d5ec 7e3d 54d3 0d3c 30ed a7bd a02a 43bc
000003c0: 5106 d73d 89a8 913d b298 aebd 076b 71bc
000003d0: f985 7b3d dc59 6ebd 2caa 16be f470 00bd
000003e0: 6442 673d 88ea 483d c3df 573d d141 d1bd
000003f0: 17a0 85be dff6 b5bd 207d cdbc 66ca 67bc

rnn.weight_hh_l0 f4 [32, 32]
-5.472851e-39 5.074802e-39 5.963474e-39 -6.147393e-39 5.014322e-39 -5.659057e-39 4.951851e-39 5.629543e-39
5.499102e-39 5.404102e-39 6.288861e-39 5.294778e-39 -5.909641e-39 -5.414326e-39 5.805539e-39 5.35707e-39
5.458914e-39 -6.238892e-39 5.478501e-39 -5.555928e-39 4.997245e-39 5.493355e-39 -6.019266e-39 5.785241e-39
5.873851e-39 -5.467728e-39 -5.677365e-39 6.223071e-39 -5.278689e-39 5.719447e-39 5.751551e-39 -6.130733e-39
6.253324e-39 -4.998049e-39 -5.898074e-39 6.021564e-39 -5.34919e-39 -5.891954e-39 5.322011e-39 5.602139e-39
6.048296e-39 6.084868e-39 -5.990478e-39 -5.044162e-39 6.13961e-39 5.044921e-39 -6.024193e-39 5.112049e-39
5.057842e-39 -5.757665e-39 6.146801e-39 -4.959953e-39 -5.990688e-39 -5.200139e-39 -5.826676e-39 5.857889e-39
-5.400174e-39 -5.731505e-39 5.877025e-39 6.171545e-39 5.302834e-39 -5.219872e-39 5.112133e-39 -6.259212e-39
5.536408e-39 5.020904e-39 6.011978e-39 -5.236197e-39 -5.507592e-39 5.897444e-39 -5.898664e-39 -5.60419e-39
5.84012e-39 -5.513675e-39 6.258604e-39 5.743023e-39 5.626205e-39 5.615792e-39 -5.98094e-39 -5.6357e-39
-5.800135e-39 5.476982e-39 6.163718e-39 5.036928e-39 -5.987483e-39 5.748059e-39 -5.518449e-39 -6.048645e-39
6.107264e-39 4.973903e-39 -6.24042e-39 -5.743522e-39 6.124563e-39 5.581162e-39 -5.968245e-39 -5.185337e-39
5.095018e-39 -5.359482e-39 -5.918586e-39 -6.049728e-39 5.170651e-39 5.45545e-39 -5.52529e-39 4.979202e-39
-5.201185e-39 5.907502e-39 5.591974e-39 -5.139436e-39 5.773592e-39 5.372173e-39 6.042679e-39 -5.387714e-39
5.832651e-39 5.874299e-39 5.671112e-39 4.978345e-39 -6.294452e-39 -5.92142e-39 -6.114172e-39 -6.261102e-39
-5.861815e-39 5.983582e-39 -5.450748e-39 5.887218e-39 6.084074e-39 4.952626e-39 5.417365e-39 5.041662e-39
-5.85355e-39 -5.546983e-39 5.318791e-39 5.631981e-39 -4.964454e-39 4.927164e-39 6.084354e-39 5.565131e-39
-6.056849e-39 -5.998529e-39 4.974479e-39 4.966317e-39 -6.2697e-39 5.588021e-39 -5.281718e-39 -5.990516e-39
5.207532e-39 -5.756049e-39 5.866444e-39 5.500574e-39 -5.243712e-39 5.857639e-39 -5.459239e-39 -5.034018e-39
5.763398e-39 -5.29176e-39 4.974893e-39 -5.483951e-39 6.15609e-39 -6.297518e-39 -5.959048e-39 -5.897129e-39
-5.750339e-39 -5.331676e-39 5.675648e-39 5.579906e-39 5.271033e-39 5.954762e-39 5.297624e-39 4.964693e-39
-5.837547e-39 5.058193e-39 -6.185365e-39 5.328727e-39 -5.472471e-39 -5.044656e-39 -5.33301e-39 5.251536e-39
-4.974818e-39 -5.96859e-39 5.404155e-39 -6.024996e-39 5.929293e-39 -5.320241e-39 -6.28863e-39 5.730991e-39
-5.700708e-39 -5.107554e-39 4.9296e-39 5.914874e-39 -5.713524e-39 5.662266e-39 -5.775005e-39 -5.601462e-39
-5.296042e-39 -6.091536e-39 5.307494e-39 -5.531983e-39 -5.460688e-39 -5.825123e-39 -5.180795e-39 5.027328e-39
-5.605879e-39 4.924393e-39 -6.213355e-39 -5.227161e-39 5.159669e-39 -5.097765e-39 4.90752e-39 5.748548e-39
-5.30601e-39 -5.784105e-39 5.459148e-39 -5.33732e-39 -5.766216e-39 -5.39349e-39 5.184248e-39 5.800274e-39
-5.635665e-39 -5.668142e-39 5.63876e-39 -5.000074e-39 5.805039e-39 5.905306e-39 -5.694353e-39 -5.400568e-39
-6.229624e-39 -5.39503e-39 5.414252e-39 5.87404e-39 -5.509767e-39 -5.806254e-39 5.797217e-39 -5.57246e-39
-5.92385e-39 -6.159225e-39 6.07402e-39 5.740821e-39 -5.305827e-39 -4.90763e-39 -6.189303e-39 5.128192e-39
-5.058928e-39 6.253852e-39 -5.095857e-39 -6.167763e-39 -5.872311e-39 -5.06151e-39 5.288401e-39 -5.80707e-39
5.595878e-39 -5.658344e-39 -5.419868e-39 -5.257676e-39 -5.478539e-39 -5.224465e-39 5.287398e-39 -5.848448e-39
00000000: 1598 3b80 7c42 3700 bdef 4000 6ef0 4280
00000010: e499 3600 269f 3d80 bfeb 3500 e04c 3d00
00000020: 42e1 3b00 70d8 3a00 c97a 4400 b0a7 3900
00000030: ad59 4080 f0f4 3a80 7b37 3f00 5555 3a00
00000040: 3b71 3b00 7eef 4380 d5a7 3b00 ab7f 3c80
00000050: 496a 3600 3dd1 3b00 448b 4180 e6fe 3e00
00000060: e8f5 3f00 cd89 3b80 2fd2 3d80 64c3 4300
00000070: d67a 3980 7e47 3e00 fca0 3e00 fdc1 4280
00000080: b917 4400 876c 3680 6e39 4080 ac91 4100
00000090: 5e3f 3a80 5f28 4080 9af3 3900 7c00 3d00
000000a0: 30dc 4100 2342 4200 043b 4180 12ed 3680
000000b0: bcda 4200 30ef 3600 0099 4180 50aa 3700
000000c0: 3513 3700 07b2 3e80 c8ee 4200 5502 3680
000000d0: 9a3b 4180 df9f 3880 6772 3f80 69c9 3f00
000000e0: 7dcd 3a80 1b69 3e80 c1fe 3f00 c233 4300
000000f0: 25be 3900 e1d6 3880 8caa 3700 2328 4480
00000100: 4149 3c00 3dac 3600 f376 4100 6304 3980
00000110: edf8 3b80 ad37 4000 133b 4080 3406 3d80
00000120: e197 3f00 e209 3c80 7126 4400 3689 3e00
00000130: 9243 3d00 8b26 3d00 6d20 4180 0a5e 3d80
00000140: 6b28 3f80 99a3 3b00 f01d 4300 e8d8 3600
00000150: ab32 4180 4097 3e00 3117 3c80 29dd 4180
00000160: 9180 4200 3829 3600 c1f3 4380 9a8a 3e80
00000170: cab0 4200 02c6 3c00 0afd 4080 9c76 3880
00000180: d67a 3700 0e5c 3a80 9c72 4080 2ee0 4180
00000190: ac4d 3800 9367 3b00 432a 3c80 fd37 3600
000001a0: caa2 3880 b653 4000 26e4 3c00 a8f6 3780
000001b0: 6dde 3e00 6f7f 3a00 88cc 4100 c1aa 3a80
000001c0: 0f83 3f00 28f7 3f00 c1c0 3d00 9a35 3600
000001d0: 5f8a 4480 837a 4080 d393 4280 682d 4480
000001e0: 5bd4 3f80 cb27 4100 785a 3b80 2b1b 4000
000001f0: ec3f 4200 e8ed 3500 69fd 3a00 1ae6 3600
00000200: 51bd 3f80 bb66 3c80 a0ea 3900 ac53 3d00
00000210: e10e 3680 eea6 3500 b440 4200 5299 3c00
00000220: 08f4 4180 7551 4180 d32a 3600 1214 3600
00000230: 5f45 4480 21d9 3c00 4883 3980 1f3b 4180
00000240: 7bb4 3800 86ad 3e80 42e1 3f00 5de5 3b00
00000250: 5619 3980 b7c8 3f00 2372 3b80 cbd0 3680
00000260: 02c2 3e00 469f 3980 fa2b 3600 06b7 3b80
00000270: ad08 4300 eb92 4480 67e3 4080 cc36 4080
00000280: 9b9d 3e80 8b0e 3a80 66cd 3d00 82c2 3c00
00000290: 7f65 3900 74d7 4000 9faf 3900 8b0f 3600
000002a0: b590 3f80 2f14 3700 485a 4380 5306 3a00
000002b0: 0697 3b80 73ee 3680 4312 3a80 252f 3900
000002c0: c52b 3680 00fe 4080 96d8 3a00 3d9b 4180
000002d0: 7590 4000 abee 3980 247a 4480 ac67 3e00
000002e0: 4113 3e80 c89d 3780 b8ad 3500 4368 4000
000002f0: fb36 3e80 18a8 3d00 5de2 3e80 99fe 3c80
00000300: 36ab 3980 b954 4280 22cb 3900 eb3c 3c80
00000310: 2d76 3b80 136e 3f80 f369 3880 25be 3600
00000320: e90a 3d80 349f 3500 4ea8 4380 33eb 3880
00000330: 0f2f 3800 7f82 3780 2b70 3500 9d98 3e00
00000340: ffc6 3980 bbfb 3e80 e271 3b00 471e 3a80
00000350: ddc9 3e80 dbba 3a80 9373 3800 ce28 3f00
00000360: f15d 3d80 79b8 3d80 9266 3d00 2c72 3680
00000370: 1636 3f00 974d 4000 8a01 3e80 96ce 3a80
00000380: a8d5 4380 26bf 3a80 bbf4 3a00 6ff6 3f00
00000390: fdfe 3b80 7939 3f80 4820 3f00 c0ad 3c80
000003a0: 4981 4080 6a11 4380 e623 4200 1383 3e00
000003b0: 7dc6 3980 7a70 3580 4265 4380 50d7 3700
000003c0: 3c16 3780 3219 4400 2d7d 3780 3729 4380
000003d0: 9df1 3f80 6e1d 3780 e995 3900 c03b 3f80
000003e0: 08ef 3c00 299d 3d80 6304 3b80 4340 3980
000003f0: f0a7 3b80 afe3 3880 1d93 3900 18af 3f80

rnn.bias_ih_l0 f4 [32]
-0.013214475 0.09327527 0.20179743 -0.015768575 0.009212791 -0.0022251063 0.0054849833 -0.112238124
0.11908446 -0.037169192 0.09825206 0.082100116 0.016458336 0.09946396 -0.46624854 -0.14474976
0.54445875 0.083395414 0.03809088 0.12481903 -0.19820292 0.0034295956 0.162113 0.045357246
-0.09708982 -0.060626112 -0.041976914 0.24017778 0.011062104 -0.1556726 0.18307129 0.051545158
00000000: 8681 58bc 1b07 bf3d fca3 4e3e 192d 81bc
00000010: 3ff1 163c 17d3 11bb 60bb b33b 1add e5bd
00000020: 8ee2 f33d b93e 18bd 6038 c93d 1b24 a83d
00000030: a2d3 863c c3b3 cb3d 21b8 eebe 4839 14be
00000040: a661 0b3f 37cb aa3d 2f05 1c3d 1fa1 ff3d
00000050: b5f5 4abe 11c3 603b f300 263e 85c8 393d
00000060: 07d7 c6bd 1653 78bd fcef 2bbd 2af1 753e
00000070: d43d 353c a368 1fbe 0a77 3b3e 0421 533d

rnn.bias_hh_l0 f4 [32]
0.04634501 0.023989199 0.013647419 0.014847363 -0.10287981 -0.015142774 0.11084542 -0.08557792
0.09665453 0.016017169 -0.16916479 0.066162266 0.08387194 -0.028970446 -0.5899649 0.09719924
0.56566876 -0.15531307 -0.025481185 -0.034293838 -0.011284395 -0.14546472 -0.13107397 -0.0060289735
-0.03705397 0.19535874 -0.19501856 -0.050771184 0.10982366 0.10955923 -0.13531323 -0.05471442
00000000: 44d4 3d3d ff84 c43c 6d99 5f3c 5b42 733c
00000010: a6b2 d2bd 6619 78bc ec02 e33d 7a43 afbd
00000020: cff2 c53d 7036 833c 8939 2dbe 1580 873d
00000030: 0dc5 ab3d 6e53 edbc f107 17bf 6510 c73d
00000040: abcf 103f 640a 1fbe ebbd d0bc b277 0cbd
00000050: 2fe2 38bc b4f4 14be 4138 06be b28e c5bb
00000060: e7c5 17bd 1f0c 483e f2b2 47be 72f5 4fbd
00000070: 3aeb e03d 9760 e03d 8d8f 0abe 3a1c 60bd

rnn.weight_ih_l1 f4 [32, 32]
-0.034375086 -0.10332169 0.15572418 0.16581848 0.21527006 0.080357976 0.4521639 -0.11321088
-0.047442287 -0.19482484 0.109677754 0.07367695 -0.09656986 0.41462782 0.13798487 -0.078525886
0.18802464 0.1851151 -0.2063072 0.16554348 -0.17961814 -0.004851483 0.30474198 0.07754091
-0.21213458 0.10893256 0.037399907 0.1871396 -0.2579907 0.027783297 -0.27315575 -0.17805903
0.08146311 0.17703615 -0.23224472 -0.16424085 -0.08143495 -0.14097944 0.012002911 -0.14574477
-0.3136476 -0.031817805 -0.122358374 0.035730246 -0.10125222 -0.18544558 0.16795336 0.39946985
0.054142553 0.07855814 -0.036804356 0.09150933 -0.035446137 -0.12305615 0.1361767 -0.010179609
-0.06203009 -0.019172376 -0.120054066 -0.17578562 0.06723942 -0.049651198 0.1321814 0.04371992
0.023182368 -0.077796414 -0.012938786 -0.06137717 -0.20630677 -0.053136036 0.14340805 -0.25626355
0.42815173 -0.1752585 -0.058452822 -0.28723288 0.009893042 -0.12847896 -0.075358614 0.003925523
0.109924115 -0.02092612 -0.266034 0.041152876 0.22460783 -0.06984393 -0.34145695 -0.13057229
-0.24241087 0.2515919 0.08594499 -0.26124188 0.15746307 0.072927214 0.29191828 -0.15068027
-0.073528215 -0.005871674 0.061481755 0.15907824 -0.10255273 0.20136191 0.106896736 0.0043593855
0.36015585 0.0064480007 -0.014713821 -0.20151965 0.03144796 -0.14743912 -0.12398043 0.14558645
-0.051727604 0.2130606 0.2995769 -0.14587781 0.016279161 -0.09357138 -0.30065572 0.18845308
-0.020111553 -0.29243693 0.08927784 -0.16158386 0.25527886 -0.08843178 0.11116778 0.082033955
0.21500313 -0.73737913 -0.111514375 -0.3789556 0.5206031 -0.15891488 -0.38272443 0.10448102
-0.45971206 -0.09858549 0.1855418 0.16917099 0.027497264 0.5015475 0.19101478 0.021116413
0.46492082 -0.09516893 0.39169464 -0.11683113 0.026700119 -0.32277668 -0.23554392 -0.1405418
0.25164336 0.24555919 -0.37310803 -0.16401502 -0.30218482 -0.025138495 -0.012204297 -0.51437193
0.3567046 -0.037462533 0.13586928 0.18449631 0.40610078 -0.23939991 0.46852517 0.68158776
-0.24417469 0.34911087 -0.18946631 0.19543593 0.3320252 0.4138518 -0.15377462 -0.012346855
-0.4743897 -0.3134663 0.051813703 0.062155362 0.049092077 -0.033910424 -0.10633489 -0.28999403
-0.09691244 -0.3033852 -0.3100868 0.43949488 -0.28107995 0.26141274 -0.030813942 0.2160469
0.1739122 0.190572 0.02979163 -0.1733226 -0.028669018 -0.13006304 0.14857021 -0.008889932
-0.27334434 -0.15626217 0.13119869 -0.3928888 -0.08873716 -0.50491196 -0.0903549 0.37034094
0.018540967 -0.08778809 -0.27018115 0.2152143 -0.18631805 -0.058461394 -0.07533411 -0.25333467
-0.39946303 -0.04829062 -0.24107212 -0.19365194 -0.21022823 0.25170273 0.23348673 0.037893057
0.1758365 0.07294695 -0.01521201 -0.14014022 -0.19337866 0.101584 0.32831565 0.10066495
0.3682404 -0.031636946 -0.051870063 -0.048883032 0.27279976 -0.42084906 0.08893007 0.09416271
-0.013993571 -0.09407399 0.0034941037 -0.1672669 0.3219558 0.07268128 0.27919972 -0.021897135
0.18553488 -0.052281838 -0.31787458 -0.1619756 -0.05792986 0.16827321 -0.33029276 -0.049549006
00000000: e4cc 0cbd 529a d3bd 2976 1f3e 52cc 293e
00000010: c16f 5c3e b992 a43d 0782 e73e 1bdb e7bd
00000020: d852 42bd 2a80 47be bb9e e03d f1e3 963d
00000030: 6bc6 c5bd 194a d43e e84b 0d3e 2ed2 a0bd
00000040: 8889 403e d08e 3d3e 3242 53be 3b84 293e
00000050: d1ed 37be 30f9 9ebb 2407 9c3e c5cd 9e3d
00000060: cf39 59be 0918 df3d a530 193d 86a1 3f3e
00000070: 5b17 84be cc99 e33c 12db 8bbe 1b55 36be
00000080: 22d6 a63d f748 353e 8fd1 6dbe c12e 28be
00000090: 5ec7 a6bd ea5c 10be dca7 443c 1e3e 15be
000000a0: 6b96 a0be 6353 02bd 0797 fabd e159 123d
000000b0: 535d cfbd 72e5 3dbe f7fb 2b3e 5087 cc3e
000000c0: 95c4 5d3d 17e3 a03d 2ac0 16bd 3e69 bb3d
000000d0: f82f 11bd dd04 fcbd e871 0b3e 60c8 26bc
000000e0: 4313 7ebd 630f 9dbc e8de f5bd 2501 34be
000000f0: d2b4 893d 0e5f 4bbd 905a 073e a913 333d
00000100: f3e8 bd3c ba53 9fbd 34fd 53bc a166 7bbd
00000110: 1542 53be 2ca5 59bd 8fd9 123e fa34 83be
00000120: b436 db3e f776 33be 3a6c 6fbd 3010 93be
00000130: 6d16 223c fd8f 03be 9e55 9abd aca1 803b
00000140: e51f e13d 416d abbc 9c35 88be eb8f 283d
00000150: 98ff 653e 560a 8fbd 72d3 aebe beb4 05be
00000160: 8e3a 78be a7d0 803e ed03 b03d 7fc1 85be
00000170: 003e 213e dd5a 953d 5076 953e ee4b 1abe
00000180: f695 96bd 2c67 c0bb 4bd4 7b3d 68e5 223e
00000190: 2a07 d2bd d131 4e3e adec da3d 2dd9 8e3b
000001a0: 5966 b83e c049 d33b 3d12 71bc 2b5b 4ebe
000001b0: 93cf 003d 48fa 16be 74e9 fdbd 9d14 153e
000001c0: 53e0 53bd 8f2c 5a3e 2562 993e fe60 15be
000001d0: e05b 853c 5aa2 bfbd 8cef 99be d8f9 403e
000001e0: fcc0 a4bc 4bba 95be 4dd7 b63d 3d76 25be
000001f0: e9b3 823e b91b b5bd efab e33d 6b01 a83d
00000200: c829 5c3e e1c4 3cbf a661 e4bd 7806 c2be
00000210: 3f46 053f 95ba 22be 75f4 c3be 25fa d53d
00000220: 615f ebbe 30e7 c9bd abfe 3d3e 293b 2d3e
00000230: f141 e13c 6b65 003f 6199 433e 54fc ac3c
00000240: 1a0a ee3e eee7 c2bd 338c c83e 2945 efbd
00000250: 35ba da3c fc42 a5be 6d32 71be 31ea 0fbe
00000260: 66d7 803e de73 7b3e 0408 bfbe 8ef3 27be
00000270: f8b7 9abe 3fef cdbc 88f4 47bc e1ad 03bf
00000280: fca1 b63e 5072 19bd 5121 0b3e 9aec 3c3e
00000290: 71ec cf3e 4025 75be 88e2 ef3e 897c 2e3f
000002a0: ee08 7abe a9be b23e 7503 42be 5b20 483e
000002b0: 35ff a93e 62e4 d33e 1877 1dbe 774a 4abc
000002c0: 35e3 f2be a87e a0be 9b3a 543d 9f96 7e3d
000002d0: c614 493d a8e5 0abd 1bc6 d9bd 197a 94be
000002e0: 087a c6bd 4e55 9bbe b2c3 9ebe 7905 e13e
000002f0: b6e9 8fbe e4d7 853e 856d fcbc 663b 5d3e
00000300: 0a16 323e 4e25 433e 940d f43c 7b7b 31be
00000310: 4adb eabc 3f2f 05be ca22 183e 14a7 11bc
00000320: caf3 8bbe 3103 20be f358 063e b928 c9be
00000330: d4bb b5bd e941 01bf fd0b b9bd 549d bd3e
00000340: 3ae3 973c 3eca b3bd 2f55 8abe 2361 5c3e
00000350: 29ca 3ebe 3775 6fbd c548 9abd 15b5 81be
00000360: 6b86 ccbe 63cc 45bd 9cdb 76be b24c 46be
00000370: 1246 57be 2edf 803e 2517 6f3e c035 1b3d
00000380: 7c0e 343e 3665 953d cb3b 79bc eb80 0fbe
00000390: 0e05 46be 460b d03d fd18 a83e 6d29 ce3d
000003a0: 018a bc3e be95 01bd b475 54bd 9339 48bd
000003b0: 69ac 8b3e 8779 d7be f820 b63d 61d8 c03d
000003c0: 4a45 65bc dda9 c0bd 55fd 643b 0448 2bbe
000003d0: 64d7 a43e ecd9 943d 44f3 8e3e 9f61 b3bc
000003e0: dbfc 3d3e 7b25 56bd 75c0 a2be efdc 25be
000003f0: dc47 6dbd d04f 2c3e 221c a9be e6f3 4abd

rnn.weight_hh_l1 f4 [32, 32]
5.918156e-39 -4.999775e-39 5.404951e-39 -5.749317e-39 5.902896e-39 -6.191797e-39 5.68986e-39 5.668172e-39
5.1e-39 5.530468e-39 6.266087e-39 -5.612346e-39 6.204127e-39 5.538555e-39 5.463895e-39 -5.654552e-39
-6.060642e-39 -5.970552e-39 5.501534e-39 5.301457e-39 -4.942244e-39 5.319448e-39 -6.168827e-39 6.061224e-39
-5.759398e-39 5.838359e-39 -5.010645e-39 -5.599355e-39 5.756966e-39 -5.911146e-39 -5.714834e-39 -5.61608e-39
-5.154909e-39 -5.837437e-39 -6.058154e-39 5.257686e-39 -5.272527e-39 -5.077821e-39 -5.944171e-39 -5.671789e-39
-5.366427e-39 5.21096e-39 -4.912096e-39 5.310753e-39 -5.273088e-39 5.858853e-39 -5.677107e-39 -5.494825e-39
-5.222826e-39 -5.444e-39 6.253611e-39 6.024238e-39 5.771357e-39 6.116508e-39 5.803185e-39 -5.257516e-39
5.203978e-39 5.828075e-39 -5.715967e-39 6.196211e-39 6.09069e-39 -5.060167e-39 5.601852e-39 -5.758818e-39
6.284293e-39 -5.240918e-39 -6.139673e-39 5.167462e-39 5.853662e-39 5.61403e-39 5.324205e-39 5.642248e-39
-5.467682e-39 -5.539977e-39 5.78868e-39 -5.064396e-39 -6.265147e-39 5.926639e-39 5.829224e-39 5.69998e-39
4.992909e-39 5.473186e-39 -5.148733e-39 5.863909e-39 -5.382916e-39 5.639018e-39 5.169836e-39 5.439263e-39
-5.305556e-39 5.628356e-39 5.872552e-39 -4.934325e-39 5.605994e-39 5.721541e-39 -5.102747e-39 5.259253e-39
-5.443672e-39 -5.262952e-39 5.20658e-39 -5.097768e-39 5.642732e-39 -5.208994e-39 -6.01135e-39 -5.175758e-39
5.848581e-39 5.24364e-39 -6.227096e-39 -6.153802e-39 -5.40328e-39 5.63026e-39 -5.497371e-39 -6.304475e-39
6.192367e-39 5.416324e-39 5.143103e-39 5.033234e-39 -6.008972e-39 -5.553508e-39 -5.632022e-39 5.702375e-39
-5.437635e-39 5.598262e-39 5.654403e-39 -5.594196e-39 -5.340459e-39 5.491425e-39 5.645312e-39 4.930427e-39
-5.262024e-39 -5.636775e-39 5.093503e-39 5.203746e-39 -5.371149e-39 -5.717938e-39 5.958439e-39 -5.910706e-39
-6.283543e-39 -6.067747e-39 6.012565e-39 5.625417e-39 5.908561e-39 -5.833215e-39 5.374658e-39 6.04355e-39
-4.981382e-39 -5.198218e-39 6.110585e-39 -5.834759e-39 -4.937247e-39 5.753317e-39 5.955762e-39 5.652083e-39
-5.15577e-39 -5.73233e-39 6.08389e-39 -5.536012e-39 -6.076502e-39 -5.36189e-39 5.36742e-39 -5.515832e-39
-5.100351e-39 -5.319979e-39 -5.341147e-39 5.702059e-39 -4.922886e-39 5.491564e-39 5.322633e-39 5.909294e-39
5.413719e-39 5.637445e-39 -5.24812e-39 -6.027413e-39 5.11651e-39 5.91766e-39 -6.015933e-39 5.868328e-39
-5.202486e-39 6.289612e-39 -4.999806e-39 -5.751557e-39 -4.933051e-39 4.995935e-39 -6.253943e-39 4.976634e-39
-6.091702e-39 -5.112394e-39 -4.925882e-39 5.884546e-39 5.064602e-39 5.317528e-39 5.83988e-39 -5.17659e-39
-6.200456e-39 -5.90905e-39 6.234509e-39 -5.689811e-39 -5.675919e-39 -5.614106e-39 5.401295e-39 5.227957e-39
-5.107126e-39 5.17189e-39 6.301203e-39 -5.655954e-39 5.121676e-39 5.938629e-39 5.403607e-39 -5.124655e-39
-5.057862e-39 5.903229e-39 -4.975676e-39 -4.944594e-39 6.285702e-39 5.984552e-39 5.898714e-39 -5.305158e-39
-5.974599e-39 -6.004236e-39 5.725254e-39 -6.198617e-39 5.450832e-39 -5.305983e-39 5.278746e-39 5.181269e-39
-5.879848e-39 -6.234586e-39 5.738218e-39 -5.19969e-39 -4.975937e-39 -5.156397e-39 -5.769272e-39 5.955081e-39
5.723871e-39 6.166178e-39 5.571603e-39 -6.051327e-39 -6.259627e-39 -5.870834e-39 5.938312e-39 -4.988304e-39
5.20451e-39 5.723361e-39 5.055687e-39 5.691224e-39 6.261419e-39 5.083552e-39 -5.689532e-39 5.256737e-39
-5.982004e-39 -6.025931e-39 5.199446e-39 5.407556e-39 5.00718e-39 6.070551e-39 -5.684867e-39 -5.410418e-39
00000000: 6971 4000 5771 3680 ceda 3a00 c29a 3e80
00000010: df46 4000 366c 4380 04f5 3d00 8fb8 3d00
00000020: ba88 3700 b238 3c00 4d3b 4400 f01c 3d80
00000030: 958e 4300 3d4f 3c00 1e7f 3b00 9792 3d80
00000040: 9bfe 4180 7803 4180 0ae8 3b00 4eba 3900
00000050: f7d0 3580 75ec 3900 2e2c 4380 3a00 4200
00000060: dcb6 3e80 f892 3f00 a48f 3680 b9f8 3c80
00000070: 14b0 3e00 df5d 4080 a23a 3e80 5927 3d80
00000080: ca21 3880 6690 3f80 abf7 4180 4a40 3900
00000090: a969 3980 e64a 3780 eeb9 4080 a4c2 3d80
000000a0: 6a6f 3a80 09be 3800 ed7c 3580 38d4 3900
000000b0: 396b 3980 19cc 3f00 77d1 3d80 56d5 3b80
000000c0: 1ddf 3880 a847 3b80 8618 4400 2099 4100
000000d0: 32d8 3e00 569a 4200 eb30 3f00 d13f 3980
000000e0: 93aa 3800 4d76 3f00 ca3d 3e80 8478 4300
000000f0: 5e52 4200 b019 3780 afff 3c00 3eb5 3e80
00000100: 0d6e 4400 8c11 3980 e9da 4280 c844 3800
00000110: a1bd 3f00 a221 3d00 b8f9 3900 4b70 3d00
00000120: ac89 3b80 3453 3c80 7c08 3f00 7a25 3780
00000130: ae38 4480 0f89 4000 8179 3f00 3a11 3e00
00000140: 335e 3600 0499 3b00 9310 3880 31da 3f00
00000150: 619d 3a80 4a67 3d00 664b 3800 743a 3b00
00000160: bbc5 3980 9149 3d00 49f2 3f00 e4ba 3580
00000170: 3b0b 3d00 544d 3e00 6290 3780 a844 3900
00000180: be46 3b80 f84e 3980 d4b1 3800 8182 3780
00000190: a471 3d00 8eb8 3880 3375 4180 e85b 3880
000001a0: 77af 3f00 2319 3900 9cce 4380 4c02 4380
000001b0: 25d6 3a80 e04e 3d00 6fdc 3b80 50a6 4480
000001c0: cd6d 4300 82fa 3a00 e100 3800 9cce 3600
000001d0: 926e 4180 ec78 3c80 c953 3d80 e717 3e00
000001e0: ea35 3b80 adf5 3c00 2d92 3d00 58ea 3c80
000001f0: 0727 3a80 dccb 3b00 d578 3d00 06b0 3500
00000200: 624c 3980 0961 3d80 9d76 3700 eda9 3800
00000210: 947c 3a80 4943 3e80 b4e1 4000 a55c 4080
00000220: f66b 4480 6912 4280 9678 4100 6041 3d00
00000230: aa56 4000 a184 3f80 5c86 3a00 f5ce 4100
00000240: 113e 3680 849a 3880 d389 4200 ef88 3f80
00000250: 09c3 3580 e8a5 3e00 3eda 4000 b58b 3d00
00000260: 3024 3880 676b 3e80 693f 4200 2648 3c80
00000270: d12a 4280 c562 3a80 2f72 3a00 e50f 3c80
00000280: b489 3780 f0ed 3980 f228 3a80 0517 3e00
00000290: 019b 3580 3fcc 3b00 56f5 3900 b558 4000
000002a0: 3ff3 3a00 e762 3d00 a025 3980 faa1 4180
000002b0: c0b6 3700 0770 4000 f981 4180 83e6 3f00
000002c0: 6aa6 3880 e17c 4400 6d71 3680 00a1 3e80
000002d0: 57b7 3580 a266 3600 7319 4480 d530 3600
000002e0: 3055 4280 46ab 3780 5ba3 3580 b813 4000
000002f0: 0d26 3700 1be7 3900 3697 3f00 3a5e 3880
00000300: 5984 4380 0758 4080 46e3 4300 e1f4 3d80
00000310: 27ce 3d80 d821 3d80 9dd0 3a00 6bed 3800
00000320: 979c 3780 2051 3800 319d 4400 8096 3d80
00000330: 26c5 3700 7baa 4000 0fd7 3a00 74cd 3780
00000340: 4313 3780 cd47 4000 292e 3680 84d7 3580
00000350: fb71 4400 7f2a 4100 373b 4000 9fc4 3980
00000360: c00e 4180 5e61 4180 ae57 3e00 397f 4380
00000370: b45a 3b00 ecc6 3980 ff7a 3900 456b 3800
00000380: a006 4080 7de3 4380 d17b 3e00 9f9e 3880
00000390: e32e 3680 f025 3880 62d2 3e80 58d8 4000
000003a0: d353 3e00 cc24 4300 5dab 3c00 a3e4 4180
000003b0: 4b29 4480 7fed 3f80 99a9 4000 5d51 3680
000003c0: 0eac 3800 6752 3e00 330d 3700 d1f8 3d00
000003d0: 4a2e 4400 e05a 3700 1af4 3d80 a53d 3900
000003e0: 6523 4180 d89d 4180 f19d 3800 11e2 3a00
000003f0: fb85 3600 3a1a 4200 19e7 3d80 0bea 3a80

rnn.bias_ih_l1 f4 [32]
0.03979833 -0.026447305 -0.12439058 0.038023163 -0.28273028 0.3260151 0.10495157 0.09118499
-0.13926975 0.18559675 -0.016622428 -0.8068046 -0.043059155 0.0029407535 -0.23991902 -0.1314154
-0.16216496 -0.08770872 0.12600465 1.6425147 0.0071276925 0.20530324 -0.20352007 -0.052455235
-0.18501945 -0.1347455 0.17227307 -0.1227068 -0.019053522 0.06969531 -0.012966086 0.14242633
00000000: 9303 233d 05a8 d8bc 7dc0 febd 2dbe 1b3d
00000010: 06c2 90be 74eb a63e d9f0 d63d 32bf ba3d
00000020: bb9c 0ebe 130d 3e3e c22b 88bc bf8a 4ebf
00000030: cc5e 30bd a8b9 403b 55ad 75be c291 06be
00000040: 920e 26be a1a0 b3bd 5d07 013e ec3d d23f
00000050: 6b8f e93b 033b 523e 9167 50be 4ddb 56bd
00000060: bd75 3dbe b9fa 09be 5a68 303e b44d fbbd
00000070: 2216 9cbc 6abc 8e3d b56f 54bc 35d8 113e

rnn.bias_hh_l1 f4 [32]
0.057592817 0.08660373 0.19776261 0.17672083 -0.13563192 0.23770767 -0.097111575 0.07500798
-0.17207167 0.2005649 0.0030902855 -0.8592915 -0.23126188 0.1796424 -0.050474424 -0.10904276
-0.04600525 -0.112339474 0.086444795 1.5992165 0.20321338 0.0020478743 -0.14385901 -0.0012713268
-0.27009484 0.0485928 -0.15825817 0.0069443304 0.16252738 0.07462067 -0.2486022 0.1342702
00000000: 72e6 6b3d 4c5d b13d 4882 4a3e 4ef6 343e
00000010: 18e3 0abe a469 733e 6fe2 c6bd c99d 993d
00000020: 8e33 30be e360 4d3e 6386 4a3b 87fa 5bbf
00000030: eacf 6cbe 2df4 373e 45be 4ebd d051 dfbd
00000040: 0070 3cbd 3d12 e6bd f809 b13d 20b3 cc3f
00000050: 2b17 503e a135 063b c74f 13be a6a2 a6ba
00000060: df49 8abe 3e09 473d 6e0e 22be 448d e33b
00000070: 946d 263e b9d2 983d 9391 7ebe 217e 093e

fc.weight f4 [1, 32]
0.0033016645 0.023211312 0.0062732785 0.030965336 -0.06622153 0.04271525 -0.005008765 0.0034363014
-0.033626266 0.014461612 -0.0217584 -0.17098685 0.0030193604 0.035565164 0.010590026 -0.04513003
-0.031523533 0.011805006 0.0015761482 -0.21477151 0.017285325 -0.012195627 -0.012715464 -0.019210065
-0.07071764 -0.050860647 0.012414751 -0.015184805 -0.014505808 0.0010757775 -0.041575503 0.015044879
00000000: bd60 583b a625 be3c 1390 cd3b 04ab fd3c
00000010: 279f 87bd 30f6 2e3d 9120 a4bb 9233 613b
00000020: b2bb 09bd 66f0 6c3c ac3e b2bc 2d17 2fbe
00000030: 76e0 453b c7ac 113d ca81 2d3c 44da 38bd
00000040: d21e 01bd c969 413c c296 ce3a 10ed 5bbe
00000050: f499 8d3c 2bd0 47bc 8654 50bc 6d5e 9dbc
00000060: 69d4 90bd 4153 50bd 3d67 4b3c b0c9 78bc
00000070: c5a9 6dbc 1a01 8d3a 134b 2abd cc7e 763c
